cpp/camParam-1612675835485.npz (npz, 2458 bytes, 6 tensors)

L_RT f8 [3, 4]
0	0x3feca749f419dd5b	0.8954210059736555
1	0xbfa8c2a04735d153	-0.048359879200605825
2	0xbfdc535511519b35	-0.4425861996773393
3	0xc019dd372adc95da	-6.466030759538137
4	0x3fa675107fa840e1	0.04386188085857313
5	0x3feff668e7062c24	0.9988293182553929
6	0xbf94e388d98d2b1e	-0.02039922550037964
7	0xc031e6d8be1ea8ea	-17.901744730458553
8	0x3fdc5b0194c0a7c7	0.44305457617394634
9	0xbf52c9e4ea6b9cb0	-0.0011467681412627266
10	0x3fecb013fe1a2375	0.8964939082080564
11	0x4074544b76f865ab	325.2684240057958

R_RT f8 [3, 4]
0	0x3fefef9c8192661e	0.9979994326305961
1	0xbfa3716b5275fb53	-0.037974695030235005
2	0x3fa9e15e64e2caf0	0.05054755193250127
3	0xc033c55d93d68d34	-19.770959129219776
4	0x3fa4387634066125	0.03949326882428953
5	0x3feff611398de658	0.9987875103099197
6	0xbf9e187f0d78bb3a	-0.029390320965997342
7	0xc032f89afd56e089	-18.971114953718402
8	0xbfa9470c2ea8ae8c	-0.04937017507139982
9	0x3fa00a32ed768e84	0.031327811705776504
10	0x3feff1fc02c6aba0	0.998289113447175
11	0x40734b9bc37fc821	308.7255282393908

intrinsicL f8 [3, 3]
0	0x40d09b880a2f29b6	17006.125621596082
1	0x0000000000000000	0.0
2	0x409079ae4f4255c7	1054.4202242245535
3	0x0000000000000000	0.0
4	0x40d09b94bc5437fe	17006.323994688682
5	0x40918e955821e795	1123.6458440110775
6	0x0000000000000000	0.0
7	0x0000000000000000	0.0
8	0x3ff0000000000000	1.0

distL f8 [1, 5]
0	0xbfc39bb51f6f9b1d	-0.15318931612929357
1	0xc00c8afdbb8e2bb8	-3.5678667691003874
2	0xbf53013f4405e421	-0.0011599653081175792
3	0x3f62d87b9857a6e3	0.0023004926649620046
4	0xbfb187479260b3f0	-0.06847045253444128

intrinsicR f8 [3, 3]
0	0x40d05f36d047176e	16764.85646226204
1	0x0000000000000000	0.0
2	0x409177adb8a51c53	1117.9196496771372
3	0x0000000000000000	0.0
4	0x40d05dfe362cee68	16759.972056610888
5	0x4091fa1782194b42	1150.5229572250541
6	0x0000000000000000	0.0
7	0x0000000000000000	0.0
8	0x3ff0000000000000	1.0

distR f8 [1, 5]
0	0xbfa3c3e10110900f	-0.03860381258007816
1	0xc01f5beaeb231019	-7.839763330473965
2	0x3f5cd5389e0f476b	0.0017598202614305901
3	0x3f5cd05fb24e35ea	0.0017586645637693806
4	0xbfb36736a515ed86	-0.07579366236125482
